mel.pt (torch_old, 697234 bytes, 30 tensors)

C1.weight f4 [32, 1, 3, 3]
000000 a2 a2 2a be cb 0a 02 bd 1b af 1a 3e 6c 92 f9 3d
       -0.16663602 -0.031748574 0.1510586 0.12186131
000010 81 99 01 be c1 6c 33 3e fd d9 6f be 2e 9e 93 be
       -0.12656213 0.17521955 -0.23423 -0.2883162
000020 5e 9b 35 3e 90 df 87 be 34 3d 9a 3e 0a cd 0c 3d
       0.17735049 -0.26537752 0.3012482 0.034375228
000030 94 f9 6a be 50 aa 3c be 92 89 9f 3e bd 5f 23 be
       -0.22946769 -0.18424344 0.31159645 -0.1595449
000040 f7 25 03 bd 0d a5 2a 3e df 4c c9 3d 7c 7e 9a be
       -0.032018628 0.16664524 0.09829115 -0.30174625
000050 bc 72 ab 3e fa 5a 35 3e 60 32 8f 3c 2c 57 e7 bd
       0.33485973 0.17710486 0.017480075 -0.112959236
000060 48 91 11 3d 5f 7c 17 be fe 9a 93 be 35 3c 76 be
       0.03553894 -0.14793538 -0.28829187 -0.24046405
000070 12 28 2d 3e ba 8e 66 be 7e ab 9d 3d c5 b7 52 3e
       0.16909817 -0.22515383 0.07698725 0.20577915
000080 4b 56 e0 bd 76 7c 81 3d 4b 8b 8f bd fa 8b aa 3e
       -0.10953959 0.06322567 -0.0700899 0.3330992
000090 0f 8c ea 3c 28 4e 51 3e 0d e3 a2 be e5 09 e8 3b
       0.028631238 0.2043997 -0.3181385 0.0070812576
0000a0 87 5e cb bd e4 d7 38 3e 9f 96 5b 3e 19 ad f0 3d
       -0.09930139 0.18051106 0.21444176 0.11751766
0000b0 ef 3c 8b 3d 21 56 79 bd 62 e9 87 3e 4c 62 de 3d
       0.067987315 -0.060873155 0.26545244 0.108585924
0000c0 e4 5c 82 be ec 2e 84 3e 48 ff 14 3e 58 42 90 3e
       -0.25461495 0.2581705 0.14550507 0.28175616
0000d0 04 35 37 be 36 2d 61 3d a1 fb c9 bb b5 0c 83 be
       -0.17891318 0.054974757 -0.0061640297 -0.25595632
0000e0 0a b8 49 bd a3 d9 2b 3e 54 31 8c bd ca 5d 83 3e
       -0.04924778 0.1678224 -0.06845346 0.25657493
0000f0 ab 41 b2 3c 17 12 8c bd d0 0f 41 be f0 76 7c 3e
       0.021759829 -0.06839388 -0.18853688 0.24654746
000100 03 d1 87 be 4b 7e a5 3c 78 ae 9d 3e 85 3b 83 be
       -0.2652665 0.020201823 0.30797172 -0.25631347
000110 04 5b 93 be dc ec a1 bd e9 33 0b 3d 70 91 57 3e
       -0.28780377 -0.079065055 0.033985052 0.21051574
000120 a1 6a 05 3e 29 5f dd bd 47 b6 8d 3e ab c4 6b be
       0.13028957 -0.10809166 0.2767813 -0.23024242
000130 60 2f 35 3e 25 9c 46 3e 66 e8 4f 3e e1 b5 e6 bd
       0.17693853 0.19395502 0.20303497 -0.112651594
000140 59 37 3e 3d 67 9e 93 be ba 5d fc 3d bb 06 75 be
       0.046439502 -0.2883179 0.123225644 -0.23928349
000150 7b 87 82 be 10 a8 29 3e 4d 84 ed bd fd 14 49 be
       -0.25493988 0.16568017 -0.115975 -0.19636913
000160 d0 e4 99 bd 60 55 97 3e 7d eb 6c bd 16 fc 6b be
       -0.07514346 0.29557323 -0.057841767 -0.23045382
000170 96 96 42 bd 85 73 60 3e 84 83 ae 3e 96 91 99 3e
       -0.04750689 0.21919067 0.34084713 0.29993886
000180 30 2e 99 3e 3d 83 69 3d 95 27 75 3e ec 3d 73 3e
       0.2991805 0.057009924 0.2394088 0.2375409
000190 1d 4d a6 3c 38 4d e5 bd 9d ec f1 bc 06 5e 63 be
       0.020300442 -0.11196369 -0.029531771 -0.22203836
0001a0 62 11 9e 3d 55 07 35 be b1 cd 05 3e 4b 61 90 be
       0.07718159 -0.17678578 0.13066746 -0.2819923
0001b0 06 bb a3 3e d3 b4 3e 3d c9 e2 27 bd 33 e0 cc bd
       0.31978625 0.046559166 -0.040987764 -0.100037
0001c0 6a cc 08 be 6a e1 96 bd 6e 22 dc 3d b9 63 9d be
       -0.13359228 -0.07367213 0.107487544 -0.30740145
0001d0 2c ff 3a 3e 62 c3 50 bd d3 de 39 3d a6 0e 80 3d
       0.18261403 -0.05096758 0.045378517 0.06252794
0001e0 18 43 8b be 38 fa a7 3e a1 3f a9 ba ff e3 39 be
       -0.27199626 0.3280809 -0.001291264 -0.1815338
0001f0 c9 92 81 be 7e c1 62 3e c6 d1 2e 3e 2b 27 1a be
       -0.253073 0.22144124 0.1707221 -0.15054004
000200 95 28 21 bd 4d 59 a9 3d bd a9 c6 3c 43 71 97 be
       -0.039345343 0.08268986 0.02425086 -0.295786
000210 15 cb a2 be 54 56 a4 3e 24 4d 9f be 67 60 83 be
       -0.31795564 0.32097113 -0.3111354 -0.25659487
000220 80 42 01 bd 86 06 41 bc fe 8b 15 bd 1c c4 2d bd
       -0.03155756 -0.01178134 -0.03651046 -0.042423353
000230 75 3f b3 3d 80 f9 b3 bd 47 b4 7a 3e 1c 84 90 3e
       0.08752338 -0.08787823 0.24482833 0.2822579
000240 f5 10 22 be 0b 26 96 be 79 25 0b be 49 a8 a3 be
       -0.15826781 -0.293259 -0.13588513 -0.3196433
000250 1c 70 44 3e b9 27 d9 3c b5 36 0b bd 91 a1 13 3e
       0.19183391 0.026508199 -0.03398772 0.14417101
000260 d1 71 08 be b3 1e 17 3a 6d 4c 95 be 6c d4 30 3e
       -0.13324668 0.00057647674 -0.2915987 0.17268533
000270 3a 0c fa 3d ec 0f 35 be ba a3 fb bd 43 3d 8a bd
       0.12209363 -0.17681855 -0.12287088 -0.06749966
000280 4b 4a 3d 3e 35 f7 6d 3e ee d1 3b 3e bb bc 8f bd
       0.18485372 0.23238833 0.183418 -0.07018419
000290 c1 e7 9e be 6c d9 7f 3e cd 37 23 3e b9 9f 80 bd
       -0.3103619 0.24985284 0.15939255 -0.06280465
0002a0 fc 3c a1 3d 3b db aa 3e 06 63 b3 3e 38 86 24 3d
       0.0787296 0.33370385 0.35036486 0.040167063
0002b0 2f 8f a4 3d 65 98 6d be 60 61 85 be 70 2f fc bc
       0.080351226 -0.23202665 -0.26050854 -0.030784339
0002c0 ca 7e 19 3e 10 b9 60 bd 1e 00 82 bd 9f e8 a8 be
       0.14989772 -0.05486399 -0.063476786 -0.32989976
0002d0 67 ce d9 3c 96 9a 96 be 1f 0b 84 be 37 61 31 bc
       0.026587678 -0.29414815 -0.25789735 -0.0108264005
0002e0 97 e8 33 be b8 88 2d be 3b 4f eb bd 0e 9b dc 3c
       -0.17569195 -0.16946685 -0.114897214 0.026929405
0002f0 6b 70 2e bd a8 1a 9f bd 37 71 fd 3c 1c c4 a9 bd
       -0.04258768 -0.07768756 0.030937774 -0.08289358
000300 79 ec 90 3e 12 07 8c bc 33 c2 90 be 99 60 7c be
       0.28305414 -0.017093215 -0.28273162 -0.24646224
000310 c9 66 1d be e9 0e 14 3e c5 dd 5e be 05 da 8d be
       -0.1537124 0.14458813 -0.21764286 -0.27705398
000320 65 e3 78 3e ee 79 b1 3e 8d 7a 6a be a3 04 ac 3e
       0.24305494 0.34663337 -0.22898312 0.33597288
000330 41 4e 6c 3e b8 72 7a 3e 90 55 94 3e a3 aa 05 3e
       0.23076726 0.24457824 0.2897153 0.13053374
000340 14 f2 a7 3e 9c 12 79 3e be 02 82 3d 25 79 86 be
       0.32801878 0.24323505 0.06348179 -0.262643
000350 1d bc 97 be fb bc 68 3e 68 2a 11 be f5 5b 3d be
       -0.29635707 0.2272834 -0.14176333 -0.1849211
000360 cc e6 17 3e bd 1f 28 3e a2 ea 3a be 8c 65 19 be
       0.14834136 0.16418357 -0.18253568 -0.14980143
000370 2c 56 3f 3e a3 4d 61 bc 44 6c 9f 3e 68 0f 8c be
       0.18685216 -0.01375142 0.31137288 -0.27355504
000380 1b 54 97 3e 53 01 9b 3d a8 0f ab be 1b 34 97 3e
       0.29556355 0.07568612 -0.33410382 0.2953194
000390 de f6 01 3d 5c 8e 56 be 78 c0 12 be 66 9f 46 3c
       0.03172957 -0.20952743 -0.14331234 0.0121229645
0003a0 17 7d 9d 3e c9 20 74 3e ab 5c e7 3d 48 f9 b9 3c
       0.30759498 0.23840632 0.11296972 0.022701874
0003b0 18 6c 4f be d4 25 9e 3e 12 12 87 be 56 09 d1 bd
       -0.20256078 0.30888236 -0.26380974 -0.10206859
0003c0 80 b9 4d 3c 1f e1 aa be ab f4 29 be cf 80 00 3e
       0.012556434 -0.3337488 -0.1659724 0.12549137
0003d0 17 ba 4b 3d d1 56 ac 3b ff b8 ec 3d 79 38 77 3e
       0.049738016 0.0052593728 0.11558723 0.24142636
0003e0 a1 5a 96 bd bb d5 9f be 0d 32 51 bd 92 7b 9a 3e
       -0.07341505 -0.3121775 -0.051073123 0.30172402
0003f0 a6 48 ad 3e 23 b4 53 bd 9a 60 67 be 63 2f 3e 3e
       0.3384449 -0.051685464 -0.22595444 0.18572764

C1.bias f4 [32]
000000 21 d2 43 ba a4 23 21 ba 15 64 50 3e 7f ad 7b 3c
       -0.00074699713 -0.00061469735 0.20350678 0.015361189
000010 91 d4 04 38 14 fe d7 3c 36 96 22 be 1c 4d 4b 39
       3.166922e-05 0.026366271 -0.15877613 0.00019388314
000020 d3 97 da bb c1 fe 26 be bd 02 3c 3e da 96 36 ba
       -0.006670931 -0.16308118 0.1836042 -0.00069652277
000030 ed 1f 35 3e 1d d1 38 ba 52 01 f9 bd 0f ea 39 3d
       0.1768796 -0.0007050203 -0.12158455 0.04538923
000040 45 d8 48 be 00 e7 e1 b8 b5 0e 06 3d 3c 4a 2c b9
       -0.1961375 -0.00010771863 0.03272887 -0.00016430853
000050 76 be 90 3b 8b c4 9a 3c 3f 9b 11 bd f2 ec 16 b8
       0.004417236 0.018892547 -0.035548445 -3.598346e-05
000060 e1 0e 5d b9 30 75 21 3e 2c ac 2e 3e 6d 46 04 be
       -0.00021081745 0.1576736 0.17057866 -0.1291749
000070 7a 1e 13 bd 97 40 f5 bd 9a c2 49 be 49 14 35 3e
       -0.035917737 -0.1197521 -0.19703141 0.1768352

C2.weight f4 [64, 32, 3, 3]
000000 6c e0 33 bd 6e ae 16 bc 3b 26 cb bc fa ae eb bc
       -0.043915197 -0.009196861 -0.024798503 -0.028769959
000010 8b bd fe bc 44 a4 34 3d 3b 23 16 bd 82 e3 f3 3c
       -0.03109624 0.04410197 -0.036654692 0.02977157
000020 c1 ba ba 3c 75 aa 30 bd d9 27 4b 3d ec 31 2b 3c
       0.02279413 -0.04313131 0.04959855 0.010448914
000030 be d1 64 3c 9d b9 6c 3d 81 86 da bc 4a a9 69 bd
       0.013966022 0.057794202 -0.026675465 -0.057046212
000040 e1 7b 15 3c 29 ed 51 bd 51 8c 6b bd e4 17 66 bd
       0.009123773 -0.051251564 -0.057506863 -0.056175128
000050 bb 0c 0e 3d 0c 64 05 bd 29 71 bf bc 35 87 29 3d
       0.03468011 -0.032566115 -0.023369389 0.04138871
000060 c0 27 07 3d a3 c7 c8 bc 42 47 4b bb 66 c4 81 3c
       0.032996893 -0.024509257 -0.0031017815 0.01584072
000070 57 42 5a 3d af c0 98 3c f9 92 04 bc fd 9c 25 3d
       0.053285923 0.018646566 -0.008091682 0.04043292
000080 f0 9b 28 bb 43 18 2e 3d 17 09 76 3d 9f f7 99 bc
       -0.0025727712 0.042503607 0.060067263 -0.018794833
000090 94 a4 a7 bc 4b 64 96 bb 7d c3 57 3d bd c8 1a bd
       -0.02046422 -0.0045895926 0.052676667 -0.037789095
0000a0 53 0e 31 3d 09 4e 88 3c 4d cd 43 bc a5 f1 07 bd
       0.04322655 0.016638773 -0.011950803 -0.033189435
0000b0 47 43 f0 bb b1 e4 ae 3b 4d b3 c7 bc 7b 67 61 bd
       -0.007332239 0.0053373207 -0.02437749 -0.055030327
0000c0 66 ea 94 38 6f 53 86 3c fe b0 00 bd 6a b7 1a ba
       7.10085e-05 0.016397206 -0.031418793 -0.00059019646
0000d0 4f 08 25 bd 65 08 32 bd 62 5e af 3b ad 83 c8 bc
       -0.040291127 -0.043465037 0.0053518275 -0.02447685
0000e0 d9 1c 63 3c ab ca 02 3d 9b a9 39 bd c9 9c fd 3b
       0.013861858 0.03193156 -0.045327764 0.0077396375
0000f0 6d dd 4d bd c5 37 bd 3b 85 36 6a 3b 10 b0 55 bc
       -0.050259996 0.0057744705 0.0035738063 -0.013042465
000100 5a f2 af 3c 06 f7 6b 3d 95 57 1d bd a0 15 5e 3c
       0.021477867 0.057608627 -0.038413603 0.0135549605
000110 51 f9 a3 bc 2a ce 69 3c a8 43 60 3d 77 ce 5a 3c
       -0.020016344 0.014270345 0.054752022 0.013354889
000120 e0 8a e0 bc ce 07 3f 3c 0e b1 e8 bc 5d 15 06 3c
       -0.02740997 0.011659576 -0.028404739 0.008183804
000130 28 ec ca 3b c1 54 71 3d 67 7e 26 bc d8 04 25 bd
       0.006192703 0.05891872 -0.010161973 -0.040287822
000140 76 0f 32 3d 4b ce 8c 3c a0 11 60 3c c2 c4 22 bd
       0.043471776 0.017188212 0.013676077 -0.039738424
000150 9b b4 23 bd 0a 13 00 bc af c1 a0 bc c9 51 10 bd
       -0.03996716 -0.007817039 -0.019623606 -0.035234246
000160 f9 71 2d 3d 48 f3 38 3c a4 14 72 3d 35 9f ad 3a
       0.04234502 0.0112884715 0.059101716 0.00132463
000170 d9 6e 9a 3c 3a 7e 53 3d 04 54 50 3d 00 cb 15 bc
       0.018851684 0.05163405 0.050861374 -0.009142637
000180 78 68 3d bb e6 90 8b 3d 51 3a ca ba e9 ee 02 3d
       -0.002890138 0.068147466 -0.0015428757 0.031966124
000190 09 0f 39 3d 01 3d 22 bd c2 d7 d3 bc 59 95 44 3d
       0.045180354 -0.03960896 -0.025859717 0.04799399
0001a0 92 e7 48 3d 28 d6 fd bc 50 c6 ed ba d7 db 13 3d
       0.049048968 -0.030985907 -0.0018140767 0.036098327
0001b0 9b a7 5b 3d d2 4d b8 3c 85 4f 82 3d 8b 4b 2f 3d
       0.053626638 0.022498045 0.063628234 0.042796653
0001c0 86 13 4f bc 5f f8 6e 3c 3b ce 11 bd 66 a6 17 bd
       -0.012638932 0.0145855835 -0.035597067 -0.037023924
0001d0 dd e2 6a bc a5 67 e7 bc d9 db 33 bd 4e 17 4b 3d
       -0.014336315 -0.028247664 -0.043910835 0.049582772
0001e0 b1 95 29 bc bf 40 2d 3c dd 22 44 bd bd 8a 17 3c
       -0.010350631 0.010574519 -0.04788481 0.009249386
0001f0 db 5f 0d bc 90 11 78 bc d6 7d a4 bc 66 80 93 bc
       -0.008628811 -0.015140906 -0.020079535 -0.018005561
000200 7c df 4c 3c 34 1b ca bc 22 f7 16 bd d8 01 54 bd
       0.012504455 -0.024671175 -0.036856778 -0.05175957
000210 4f f9 1a bd 7d 33 1b bd 62 b2 14 3d 45 9c 30 3c
       -0.037835415 -0.0378909 0.03630293 0.010779445
000220 d8 5a f2 bc 26 da b0 bc c0 51 80 3d 5d 10 64 bd
       -0.029584333 -0.021588396 0.062655926 -0.055679668
000230 6b 4b ed bc 2b 39 e2 3c 56 a1 c7 3a a0 8b 98 bc
       -0.028966626 0.02761515 0.0015230577 -0.018621266
000240 0e 53 cc 3c 35 24 56 bd e1 e6 e2 bc 96 57 66 3a
       0.024941947 -0.052280623 -0.027697982 0.0008786855
000250 75 7a 50 3b 5e 3e 62 3d 7b 9e 1e 3c 37 7b 68 bd
       0.0031811271 0.05523526 0.009681339 -0.05675813
000260 e2 59 35 bd 58 a1 dd 3b ff 3c 01 3d bb b3 56 3d
       -0.044275172 0.0067636184 0.03155231 0.052417498
000270 47 39 dc 3c 2e 74 e5 ba 6a ce ff 3b ff 27 b1 3c
       0.02688278 -0.0017505938 0.007806589 0.021625517
000280 b6 0c 28 bc 50 0e 13 bd 6b 36 5f 3d a3 88 5d bc
       -0.010256937 -0.03590232 0.054495256 -0.013521346
000290 17 22 9a 3c dc 61 46 bd b6 ec fa 3c ee 11 97 ba
       0.018815083 -0.04843317 0.03063045 -0.0011525729
0002a0 95 f9 03 3d 42 e9 2f 3c 51 f5 50 3c 4f 2d 29 bd
       0.03222044 0.010736765 0.0127538005 -0.041302975
0002b0 0a 57 9b bc 97 ed 5b bd b3 a9 a6 3c 25 17 61 bd
       -0.018962402 -0.05369338 0.02034459 -0.054953713
0002c0 81 b1 de 3c c2 70 f2 bc 73 e6 4f bd f6 a5 1c bd
       0.02718425 -0.029594783 -0.050756883 -0.03824421
0002d0 8f e4 0c 3d 6a 43 40 bd 97 cb 62 3c 44 f1 c0 bc
       0.034397658 -0.04693929 0.013842485 -0.023552544
0002e0 fd 85 2d bd 46 bd 28 3c ef 9a 15 bd d0 e1 29 3d
       -0.04236411 0.010299033 -0.03652471 0.041475117
0002f0 9d bf 33 3c a1 3c 0d 3d 5c a2 a8 3b 4e f3 c2 3b
       0.010970977 0.03448165 0.005146308 0.0059494143
000300 9f 01 40 3d 05 bf a7 bc d4 08 67 bd 30 8b 75 bb
       0.046876546 -0.020476827 -0.056404904 -0.0037466995
000310 a8 8f 6e bd 4a d2 33 bd 72 03 8c ba de 15 f4 3b
       -0.05824247 -0.04390172 -0.0010682179 0.007448896
000320 a5 12 85 3d b0 67 70 3d 93 b8 85 bc 06 f0 02 3d
       0.06497697 0.058692634 -0.016323363 0.031967185
000330 57 20 2c 3d 76 b2 0d bd d1 1a 23 3d 96 ac d4 3c
       0.04202303 -0.03459402 0.039820496 0.025961202
000340 f9 e7 65 3d b1 0a 6f 3d ba e1 cf bc f2 9f 21 3d
       0.05612943 0.058359805 -0.02537619 0.039459176
000350 0b b8 b7 bc 2e 27 6c 3d 09 e9 48 3d 5f 1b 76 3c
       -0.022426626 0.057654552 0.049050365 0.015021174
000360 d1 e6 5d bd a1 8e c0 3b 83 48 72 3c 81 0a ff 3b
       -0.0541752 0.0058763777 0.014787796 0.0077832346
000370 94 fc cb bc 0b a2 dd 3c 92 9a 51 bd da 58 c5 3c
       -0.024900712 0.027054807 -0.0511728 0.02409022
000380 06 49 3b 3d cc 54 81 3b 4b 75 cc 3c 37 3e 23 bd
       0.045723937 0.003946876 0.024958273 -0.039854255
000390 47 fc 1f bc 0b 70 1f 3d b2 d6 08 3d 34 1d a4 bc
       -0.009764737 0.038925212 0.033407874 -0.020033456
0003a0 26 1e 0f bc 06 69 44 bc 83 18 5f bd 7f c9 0c bc
       -0.008735215 -0.01198793 -0.054466736 -0.008592962
0003b0 fd 14 6b 3c cd 20 e7 b9 7f 6b 7d 3d 6c 21 fa bc
       0.014348266 -0.00044084192 0.061870094 -0.030533515
0003c0 e2 10 14 bd a0 95 54 3c cc 32 4d 3d 88 a8 27 3d
       -0.036148913 0.0129751265 0.05009727 0.04093221
0003d0 f9 90 af 3c bd 71 60 bd 56 9c 28 bb 86 74 22 3c
       0.021431433 -0.05479597 -0.002572795 0.009915477
0003e0 6f 69 50 3d 39 d9 0c 3d 6b 14 dd bc 6b 42 7e bc
       0.0508818 0.034386847 -0.026987275 -0.015518765
0003f0 e7 ce 33 bd 2e 3e 08 bd 4a 11 5a 3d 53 ac 11 3d
       -0.04389849 -0.033262424 0.053239144 0.03556473

C2.bias f4 [64]
000000 fb 78 b7 38 ad 5a 09 ba 30 95 17 b9 be 7c ca 38
       8.748654e-05 -0.0005239647 -0.00014456059 9.655346e-05
000010 b3 21 29 39 c8 7d 10 ba 9d 0a 54 39 18 f4 ba b7
       0.0001612965 -0.0005511907 0.00020221849 -2.2286593e-05
000020 e6 0b 7b b9 9b 54 92 39 1b 8c c1 39 13 e9 16 b9
       -0.00023941658 0.00027910326 0.00036916215 -0.00014391942
000030 9b 2d 54 38 2c f1 17 38 d7 74 ef b7 f5 c3 cd 38
       5.0587212e-05 3.6225814e-05 -2.8545428e-05 9.8116616e-05
000040 a6 ca 82 38 14 b1 13 39 68 ec 68 b9 fc 14 0b b8
       6.236629e-05 0.00014084979 -0.00022213312 -3.3159726e-05
000050 ca 0b ae b7 d2 65 11 b8 cc 5a 66 b9 a3 21 ab b8
       -2.0747906e-05 -3.466552e-05 -0.00021968334 -8.160181e-05
000060 82 33 87 b9 bc 1d 87 b8 63 8c a2 38 84 bb ab b8
       -0.00025787583 -6.44284e-05 7.750911e-05 -8.188843e-05
000070 01 89 03 39 28 c1 1f 37 e1 c3 29 b9 b6 f0 00 39
       0.00012544171 9.522111e-06 -0.00016190067 0.00012296703
000080 b4 93 32 38 9a 58 55 b9 61 ca f4 b7 71 a6 2b 38
       4.2576066e-05 -0.0002034627 -2.9181307e-05 4.0924588e-05
000090 2c 04 96 38 87 76 13 39 02 4f 09 b9 cc 27 de b7
       7.1533344e-05 0.00014063167 -0.00013094771 -2.6482994e-05
0000a0 ce a4 83 b9 8f 52 11 36 5e b9 3a b8 42 84 51 b7
       -0.00025109056 2.165474e-06 -4.4518492e-05 -1.2488164e-05
0000b0 6b 7b 06 b9 10 0c 5e b9 bc 19 7d 37 3c aa 23 38
       -0.00012825213 -0.00021176063 1.5085967e-05 3.902077e-05
0000c0 ea 95 0a 38 d4 a1 d6 39 b2 98 67 b9 59 e1 f9 b8
       3.3041382e-05 0.00040937832 -0.0002208676 -0.000119152195
0000d0 74 ac 39 3a f2 8f e8 b8 8a f1 3e 39 fe 89 79 39
       0.00070828875 -0.00011089434 0.00018209792 0.00023797897
0000e0 83 06 46 37 18 31 13 b9 d8 34 49 39 82 3a 68 b8
       1.1803236e-05 -0.00014037301 0.0001918854 -5.53676e-05
0000f0 b1 f3 d9 38 03 bd 29 b9 31 7a 0b b9 41 74 27 3a
       0.000103927574 -0.00016187508 -0.00013301593 0.00063878676

C3.weight f4 [64, 64, 3, 3]
000000 fc cc 21 3d 6b 12 6b 3c ee 93 31 3c f2 e2 02 3a
       0.03950213 0.014347653 0.010838492 0.0004992924
000010 9f e5 49 bc 61 b3 af bc ec 0c 01 3d d2 83 b1 3c
       -0.012322812 -0.02144784 0.031506464 0.021669302
000020 66 dc 3e 3c df bf be ba 77 01 2f 3b 1c 7b 94 3c
       0.011649227 -0.0014553032 0.0026703754 0.01812511
000030 fe fb 1a 3d f0 f8 41 3d 69 eb a8 bb ba 1c 8c 3c
       0.037837975 0.047356546 -0.005155016 0.017103542
000040 1e 33 c5 3c f8 92 fd 3c 21 a5 1d bd 23 65 40 bc
       0.024072226 0.03095387 -0.038487557 -0.011742863
000050 d5 06 f3 bb f0 ac bc 3c 2c bd 85 3c c7 c9 0e 3c
       -0.007416586 0.023031682 0.016325556 0.0087151
000060 fa 82 27 3d 44 2a ff 3c cf a8 a1 bb 28 33 83 3c
       0.040896393 0.031148084 -0.0049334536 0.016015604
000070 54 f7 09 3c d3 7a 8d bc a7 9d 22 3c 2d ff c9 bc
       0.008420784 -0.017270481 0.009925283 -0.02465781
000080 ee 65 ce 3c e2 c6 41 3d 4e 9e 3c bc 26 d3 c7 3c
       0.025195088 0.04730881 -0.011512352 0.024392676
000090 cc ac 46 bd e1 01 bd bb 5f 17 0f bc f9 64 f4 3c
       -0.048504636 -0.0057680462 -0.008733599 0.029833304
0000a0 8b bf c4 3b 97 28 b6 bc 05 af 1f 3d fe be 4f 3b
       0.006004279 -0.022236152 0.03898527 0.0031699534
0000b0 d4 71 eb ba 58 c8 85 bc 5b e5 4d bc 48 e4 13 bd
       -0.0017963 -0.016330883 -0.01256689 -0.036106378
0000c0 e4 dc 0b bd f5 ae 2d bc b0 35 20 3d d9 6c 7e bd
       -0.034146205 -0.010600795 0.0391137 -0.062115524
0000d0 2f c3 b1 3c 03 ab a0 bc 49 47 17 bd 84 f8 4b 3c
       0.021699516 -0.019612795 -0.036933217 0.012449387
0000e0 68 71 03 3d f3 c3 cd bb f8 99 2b bc 48 f9 e5 bc
       0.032090575 -0.0062794625 -0.010473721 -0.028072968
0000f0 f4 b9 2f 3c cf e3 28 bd d5 06 1d bd 19 70 71 bb
       0.010725487 -0.04123288 -0.038336594 -0.0036840497
000100 50 0a 00 bb 65 8b 2c 3d ce 4e 31 ba 2c 53 f7 3c
       -0.0019537397 0.042125124 -0.0006763757 0.030191027
000110 a1 d9 fe bc 19 97 d7 3c f3 1a 22 bd f4 1b b5 bc
       -0.031109633 0.026317166 -0.039576482 -0.022108056
000120 5e 13 63 3c eb 91 33 3d 89 7c d3 3a 7d 5a 16 bd
       0.013859598 0.04384033 0.0016135137 -0.03670739
000130 19 8f 73 bc 9e c4 fa 3c f9 a6 d7 3c 6e 5b dd 3c
       -0.01486566 0.030611333 0.026324736 0.027021136
000140 83 79 11 bc 6d c7 5d 3c 74 be 73 3c d6 cb a2 3c
       -0.008879068 0.013536316 0.0148769505 0.019872587
000150 e2 9f b5 3c 30 dd 47 3c d7 0e c6 bc 2e 2e 32 3d
       0.022170965 0.012198731 -0.024176998 0.04350107
000160 63 fe 4f bb 70 96 f5 3a fb 18 0a 3d 3a 64 c3 3c
       -0.003173732 0.001873685 0.03371523 0.023851503
000170 cf 8f 0b 3d 07 27 0b 3d 9a 4a 51 3c e2 78 bb 3b
       0.034072693 0.033972766 0.012774134 0.0057211975
000180 54 57 bb bb 5c 9f f8 ba 43 77 9b bc c7 71 08 3d
       -0.0057171974 -0.0018968391 -0.018977767 0.03331163
000190 a5 85 9d bb 00 fa 80 3b da 8f 53 3a ba 51 bd bc
       -0.0048071914 0.0039360523 0.0008070447 -0.02311026
0001a0 41 d0 30 3d c2 17 98 3a e8 8d 24 3d 62 af bd bb
       0.043167356 0.001160376 0.040174395 -0.0057887295
0001b0 ee 99 b0 bc 15 4e 3b bc 87 ab 7b bb 9c 06 b0 3c
       -0.021557774 -0.01143219 -0.0038401799 0.021487527
0001c0 5a 1c 6c bc a5 39 d7 3c 53 96 65 3d 3b 8b 46 3d
       -0.014411056 0.026272604 0.056051563 0.048472624
0001d0 f0 f9 19 bc 6a 72 a4 bb 11 5b 30 bc 00 81 f7 bc
       -0.009397969 -0.005018522 -0.010763899 -0.03021288
0001e0 8f da b4 3c bc 5c 0a 3c 54 d0 99 3c 76 b8 b3 bc
       0.022076873 0.008444961 0.018776096 -0.021938544
0001f0 57 d3 63 bc d9 67 dd 3b c6 da f9 3c cb 47 1e 3d
       -0.013905368 0.0067567644 0.030499827 0.038642686
000200 a5 da 82 3c 57 6d 57 3c 3f 19 61 bd d8 27 37 bd
       0.015973398 0.013148627 -0.054955717 -0.044715732
000210 00 b2 7e 3c a0 cf aa 3b cb 49 ba 3c 00 8f 53 bb
       0.015545368 0.005212739 0.022740265 -0.003228128
000220 fb 79 d1 bc 95 69 9c ba 74 ea 1f bc 1d 96 bb bc
       -0.02557086 -0.0011933321 -0.009760488 -0.022898728
000230 13 fa 88 3c 22 6c be 3c 10 e4 73 bc 6a c3 58 3d
       0.016720807 0.023244921 -0.014885917 0.052920736
000240 44 de 22 bb 25 cb ac bb eb f1 3d 3d 92 e6 51 bc
       -0.002485172 -0.00527324 0.04637329 -0.01281132
000250 e6 cd c1 bb 34 75 96 bc 4b fd a2 bc 36 5b e4 3c
       -0.0059144376 -0.018366434 -0.01989617 0.027875524
000260 d1 41 ac ba 28 a1 0d 3d 89 e3 c8 3c 25 38 80 bc
       -0.0013142173 0.03457752 0.02452256 -0.015651772
000270 59 c3 17 bc 2f 3b 41 bd 87 ce 9a 3c 51 4a 0a 3c
       -0.009262883 -0.047175582 0.018897308 0.00844057
000280 9a 75 41 bd cd 7f 20 3d 73 0b 0b 3d f4 75 7c bb
       -0.047231294 0.03918438 0.033946466 -0.0038522454
000290 9e 4c cd bc 4f 7c 7c bc 3e 3a 34 3d 3e 4c cf 3b
       -0.025060948 -0.015410497 0.044000857 0.0063262274
0002a0 ea 83 13 bd c0 a9 e4 bb bf a9 21 3c b4 e0 e4 bc
       -0.036014475 -0.0069782436 0.009867131 -0.027939178
0002b0 42 3f 1e 3c d2 25 c9 3b 79 d1 3e 3d fa 07 0a 3d
       0.0096586365 0.0061385417 0.046586487 0.033699013
0002c0 d9 26 3f 3d 06 13 f2 3c e5 2e 18 3d 13 bb 3f 3d
       0.046667907 0.029550087 0.037154097 0.046809267
0002d0 9a 3a 20 3c 63 81 06 3d 73 87 c9 3c 82 6b 86 bc
       0.009779597 0.032838237 0.02460072 -0.016408686
0002e0 57 97 65 bc 7d 4c 94 bb fe b8 07 bc 3f 97 a4 bc
       -0.014013133 -0.0045257197 -0.008283852 -0.020091651
0002f0 34 bf 61 3d ce 8d 83 bc 7d 97 38 3d 15 bf ec 3c
       0.055113986 -0.016058829 0.045066345 0.028899709
000300 a9 db b7 bc fc 19 69 bc b5 35 17 bc 6c ad aa bb
       -0.02244361 -0.014227387 -0.009229113 -0.005208662
000310 e8 9c 62 3d 69 2f 24 bd 40 ad e1 3b 44 89 4a 3d
       0.05532542 -0.040084276 0.006887108 0.049447313
000320 6e a5 b7 3c 0f f1 7e 3c 1a b1 21 bb 2f e7 7b 3c
       0.02241775 0.015560403 -0.002467221 0.015374943
000330 22 1c a0 bb 45 8a f0 3c 04 6e f0 3b e0 39 c1 bc
       -0.004886166 0.029362807 0.0073373336 -0.023587167
000340 73 2e 70 3c c1 34 63 bc c0 5e 83 bc 26 62 a9 3c
       0.014659512 -0.013867558 -0.016036391 0.020676684
000350 08 60 51 3c bd c4 fe bb 30 5b 12 3d fb 5f 37 3d
       0.012779243 -0.007774918 0.035731494 0.04476927
000360 7f 18 0b bd 4d f5 0c bd 84 8d 18 bc 1c 4e 28 3d
       -0.03395891 -0.034413625 -0.009311084 0.041090116
000370 d2 1f 04 3d 0b 6a d6 bb fb f0 21 bd fd fa 37 bd
       0.03225691 -0.006543403 -0.039536458 -0.044917095
000380 0f ff f6 bc b5 1f 67 bc 1d 2b 3f 3d 23 cd 0c bc
       -0.030150918 -0.014106681 0.046671975 -0.00859383
000390 37 6c 85 bc 93 69 ae 3c 83 02 89 3c ee 77 2e bd
       -0.016286952 0.021290576 0.01672483 -0.042594843
0003a0 70 db bc 3c 9f f5 f7 bc 1f ab 71 3c 5b 00 3a bc
       0.023053855 -0.030268488 0.014750271 -0.011352624
0003b0 2d af 01 3d 52 74 06 3c 10 b6 c8 3b a0 fc 9b bb
       0.0316612 0.008206444 0.006125219 -0.00476034
0003c0 58 17 97 3a 9c 0c 50 3c a0 55 17 3d 3f 13 71 3c
       0.0011527343 0.012698319 0.036946893 0.014714061
0003d0 50 a2 30 3d ea 0d a1 bc ca f3 0f 3d c7 be a2 bc
       0.043123543 -0.019659955 0.035144605 -0.01986636
0003e0 05 09 6f 39 37 72 16 bc 91 a3 8e 3c 1a 72 06 bc
       0.00022796176 -0.009182504 0.017411979 -0.008205915
0003f0 10 3a 80 3d 18 db c3 3c 1f 51 87 3c 24 c0 ca bc
       0.062610745 0.023908183 0.016518174 -0.024749823

C3.bias f4 [64]
000000 9a 8a 5a b8 2c a7 90 b8 ea a0 e0 b8 c2 bd 54 38
       -5.2104333e-05 -6.897593e-05 -0.00010711125 5.0721465e-05
000010 f4 f4 aa 37 5a 6f 6b 38 f4 b9 f3 b7 83 3c cb b9
       2.0379644e-05 5.613207e-05 -2.9054449e-05 -0.00038764262
000020 9d 93 87 b8 ef 58 f0 38 53 3e 7c 38 cd d9 c8 b6
       -6.464797e-05 0.00011460657 6.0139526e-05 -5.98582e-06
000030 0c c9 0b 38 b2 4f 0e 38 ca 15 6c 38 74 30 cf 37
       3.3327422e-05 3.392966e-05 5.6287077e-05 2.4698886e-05
000040 a7 9f ae 38 8e d1 35 b8 bb ea 55 38 46 1c bf 36
       8.326704e-05 -4.3348926e-05 5.1001767e-05 5.695535e-06
000050 6a f7 41 38 da 27 76 b8 0d 97 05 38 12 96 b4 38
       4.6245208e-05 -5.8688085e-05 3.1850348e-05 8.6110216e-05
000060 77 cc e7 b7 bf ab 6c b8 6e dc 11 b6 11 0c d0 b6
       -2.7632557e-05 -5.6426736e-05 -2.173499e-06 -6.2002878e-06
000070 ac f7 1a 39 b2 57 db b8 78 63 b9 38 c7 85 ce b7
       0.0001477885 -0.00010459068 8.840015e-05 -2.4619409e-05
000080 4a f4 65 38 8f 2a 2c 38 ec 41 b0 37 46 e4 9a 38
       5.4825367e-05 4.104763e-05 2.1011532e-05 7.3858115e-05
000090 4e 93 d4 b8 4a 3c 53 38 d0 93 8d b8 be bf 80 35
       -0.000101363854 5.036247e-05 -6.750936e-05 9.592547e-07
0000a0 2e 4f cc 36 8e c8 79 b8 d2 4d f1 36 dd e5 5a 38
       6.0888915e-06 -5.9553007e-05 7.191419e-06 5.2189327e-05
0000b0 93 64 2a 38 5a 58 2d b8 d4 ae ce b7 b3 62 97 b8
       4.0624825e-05 -4.1328698e-05 -2.4638524e-05 -7.218625e-05
0000c0 52 e2 a6 b7 c5 93 b8 37 dd 6b a0 37 5c 71 1d b7
       -1.989413e-05 2.200332e-05 1.9123714e-05 -9.384323e-06
0000d0 09 97 7f 37 5a 0b d1 37 7b 0d c1 36 f3 1d 86 38
       1.523435e-05 2.4920027e-05 5.7534176e-06 6.3951964e-05
0000e0 2f b3 5c b8 3c 1d 84 b8 03 cd c8 b8 7d 63 6f b8
       -5.2618965e-05 -6.299696e-05 -9.5749296e-05 -5.7074696e-05
0000f0 c0 77 9f 38 4f 08 5a 38 0e 70 df b8 78 43 8b b8
       7.604016e-05 5.198299e-05 -0.000106543404 -6.6406035e-05

C4.weight f4 [64, 64, 3, 3]
000000 e7 9d a6 3b 50 55 3f bc a8 d2 fa 3c fc 34 c1 ba
       0.0050847414 -0.011678055 0.030618027 -0.0014740522
000010 20 f2 2a bd d0 94 87 b6 6b 24 86 bc 8e cd 1c bd
       -0.041734815 -4.0406376e-06 -0.016374787 -0.03828197
000020 fe 11 e2 3b de 24 8f 3c b5 bb 38 bc 14 9c a1 bc
       0.0068991175 0.017473634 -0.011275222 -0.019727744
000030 9c 14 0e 3c 56 f4 31 bd 58 58 a7 bc 12 64 9f bb
       0.008671906 -0.043445908 -0.020427868 -0.004864224
000040 fe 7e 40 bd 02 9e 80 3c 8f 59 46 bd c0 be 3d bc
       -0.04699611 0.015700344 -0.048425253 -0.011581123
000050 e4 fa 97 bc 32 e0 77 bc 53 57 5f bd 06 54 03 bd
       -0.018552251 -0.015129136 -0.05452664 -0.032062553
000060 e0 b0 88 bc ae 0e 96 3c 7c 50 ff bb 1e e3 d8 3c
       -0.016685903 0.018317547 -0.007791577 0.026475485
000070 bb 42 89 3c 8c 17 9b 3a 8a 0c d6 bc 44 ab af 3c
       0.016755452 0.0011832579 -0.026129026 0.02144397
000080 ef bf 79 3b da 18 3f bc e4 59 e6 bc a2 ea e7 bc
       0.0038108786 -0.01166364 -0.028119035 -0.028310124
000090 37 c4 af 3b 3d 40 a6 bb 92 03 ab 39 38 e8 cb bc
       0.005363967 -0.005073576 0.00032618322 -0.024891004
0000a0 d5 bc d8 3c b8 6a d1 3b ac a0 00 bc d7 63 1b bd
       0.02645723 0.0063908957 -0.007850807 -0.03793701
0000b0 d3 99 32 bd 5b 4c c4 bc 5f 86 3d 3d a1 7e 76 3c
       -0.04360373 -0.02396219 0.046270724 0.015044839
0000c0 e4 e4 6b 3b b1 f7 8f bc 46 ba 8b bc bc b8 80 bc
       0.0035994584 -0.017574163 -0.017056596 -0.015713088
0000d0 f2 ed 14 bd b8 42 86 bc 9d 10 33 bb c2 51 95 3c
       -0.036359735 -0.016389236 -0.0027323135 0.018227462
0000e0 27 bc 3d bd 97 ba 44 3c 58 29 c0 bc c2 7f 03 3c
       -0.046322014 0.012007377 -0.023457214 0.008026065
0000f0 6a 83 cc bc c2 26 b6 bc 72 94 88 bc 9e fc c7 3c
       -0.024965007 -0.022235278 -0.016672347 0.02441245
000100 eb 83 e0 bb fb 91 12 3d 16 81 cb 3c 7c 79 e9 bc
       -0.0068516633 0.03578375 0.024841826 -0.028500311
000110 b0 f6 e9 bb dd 19 2d 3d f6 55 89 bc 27 dc d8 bb
       -0.007140003 0.042260993 -0.016764622 -0.006618041
000120 6f 50 f9 bc d1 7c 14 bd 02 64 fe 3c 98 d8 21 3c
       -0.030433862 -0.036251847 0.031053547 0.0098783
000130 44 45 39 bd 94 8d 9f 3c 13 a5 79 3c 42 81 b0 bc
       -0.045232072 0.01947669 0.015237111 -0.02154601
000140 ff 3e 39 bd 1d 70 91 3c 85 52 be bc e2 83 d6 3c
       -0.045226093 0.017753655 -0.023232708 0.026185934
000150 d7 ce 4a bc fb 7a d0 3c fe 34 e0 3c 1d e7 86 3b
       -0.012378416 0.025449267 0.027369019 0.0041169063
000160 c7 ae d7 3c e6 67 d8 3c 14 35 6d 3c 29 97 bc bc
       0.026328458 0.02641673 0.014477987 -0.023021298
000170 38 96 62 bd 7e 98 ad 3c a2 ee 05 bd f2 81 96 bc
       -0.05531904 0.021190878 -0.03269828 -0.01837251
000180 f3 14 3e bd 0f 62 63 b9 85 46 e4 3c 90 5f d2 3c
       -0.046406697 -0.00021684937 0.027865658 0.025680333
000190 2d 8e 01 3c 8b b3 e5 bc 93 bb 18 3d c5 22 b5 bc
       0.0079074325 -0.028039714 0.03728826 -0.022111306
0001a0 f0 f7 cc 3c 41 3a 83 3b 24 4f 44 bd ba 15 a2 bc
       0.02502057 0.004004747 -0.047927037 -0.01978575
0001b0 51 02 67 bb ff 46 ef bc 91 e5 23 bd 81 b2 0f 3d
       -0.0035249183 -0.029208658 -0.040013853 0.035082344
0001c0 ae a3 15 bd 2b 47 68 bb 82 92 c9 3b 15 9e 4c bd
       -0.03653305 -0.003544281 0.0061514983 -0.049955446
0001d0 b2 64 0e bb 06 95 a2 3c f5 40 f4 3c d5 0c dc bc
       -0.00217275 0.01984645 0.02981613 -0.026861588
0001e0 14 06 c9 3c c5 a4 db 3c 9b 47 25 3b f5 17 45 39
       0.024539031 0.026811967 0.0025219682 0.00018796309
0001f0 a1 d9 77 bd 32 0f 75 bd 8c 59 12 3c e0 88 d4 3c
       -0.06051028 -0.059828945 0.008932482 0.025944173
000200 70 ed 88 3c 53 35 17 bc d5 95 95 3c b5 21 83 bc
       0.016714782 -0.009229022 0.018259922 -0.016007284
000210 bf 10 a0 bc 9d 30 76 3c 56 af fd 3c 99 61 19 3d
       -0.019539235 0.015026239 0.030967396 0.037446592
000220 b5 19 ec bc fa 87 21 bc 6d bf 6e 3b 17 1e 15 3d
       -0.028820852 -0.0098590795 0.0036430017 0.03640565
000230 7f 7a 91 bc 0c 04 e0 3c 95 ec 30 3d 39 f3 fe bc
       -0.017758606 0.02734568 0.043194372 -0.031121837
000240 a0 32 e2 bc a2 6a 76 ba 17 8d 0b bd 2a 00 03 bd
       -0.02761203 -0.0009400045 -0.0340701 -0.03198258
000250 3f 19 de bb 1a f7 b5 3c c0 29 f5 bc 70 87 6d 3c
       -0.006777912 0.022212554 -0.029927135 0.014497623
000260 63 c3 10 bd d3 63 38 ba fb 65 91 bc 4a 92 6a 3c
       -0.035342585 -0.0007033918 -0.017748823 0.014317105
000270 b3 93 1d bd 51 14 88 3c d1 19 9c bc 43 66 f1 3c
       -0.038470935 0.01661125 -0.019055279 0.029467707
000280 0f df c5 3c 43 99 53 bb 82 19 17 bd 49 0c ab bc
       0.024154214 -0.0032287396 -0.03688956 -0.020879881
000290 4f d2 fc bc 59 ac b9 3c 2c 52 86 bc b6 25 e9 ba
       -0.030862002 0.02266519 -0.016396604 -0.0017787728
0002a0 4f 6a 47 bd 55 5e a6 3c e2 3c b4 bc f3 9b 12 bd
       -0.04868537 0.020308653 -0.022001687 -0.035793256
0002b0 fb 06 d5 3b e9 d3 be 3c 5c ba 00 bd 89 00 2f bd
       0.0065010763 0.023294406 -0.031427726 -0.04272512
0002c0 cb 29 8d bc 7b 4a f7 bb 82 e9 59 bc b4 82 8a bb
       -0.017231843 -0.0075467206 -0.0133003015 -0.004227007
0002d0 bc 0b 1d 3c de fb 23 3c 2e 98 91 bc b9 da 11 bd
       0.009585317 0.01000878 -0.01777276 -0.03560898
0002e0 a7 85 0f 3d 6a 8c 22 3b 46 b2 aa 3c c2 3b 05 3c
       0.03503957 0.0024802932 0.02083696 0.008131923
0002f0 20 57 d2 bc 66 b2 2e 3d 8a 6b a0 3a b5 b8 05 bd
       -0.02567631 0.042650603 0.001223908 -0.032646853
000300 3c 1f 5d bb 24 a1 9d bc 84 2e 55 bd 27 b5 2d bb
       -0.003374054 -0.019241877 -0.052046314 -0.002650568
000310 df 86 d5 3b 03 dc f3 3b 73 f1 12 bd 83 57 ca 3b
       0.006516322 0.007441999 -0.035874795 0.006174983
000320 13 f3 2d bc 43 82 40 bd 1c db f7 bc 1c d8 1d 3b
       -0.010617035 -0.046999227 -0.030255847 0.002408511
000330 98 0e 07 bd ca aa 06 bd 81 98 3d bb 08 f3 16 bc
       -0.032972902 -0.03287772 -0.002893001 -0.009213217
000340 c5 80 21 bd 4b 4e 51 bc b7 b4 56 3c a4 51 05 bd
       -0.039429445 -0.012775014 0.013104609 -0.03254856
000350 62 36 d6 bc 26 7e 6e ba c7 21 63 3c 17 5a 3a 3c
       -0.026148979 -0.0009097777 0.013863034 0.011374018
000360 1e 9f 97 bc ac ce 83 bc be 5f a0 3c b4 f6 ab bc
       -0.01850849 -0.01608976 0.019576903 -0.02099166
000370 2e d4 11 bd 64 ec 00 3d 04 fb f2 bc 24 c1 1b 3c
       -0.03560274 0.03147544 -0.02966071 0.0095064975
000380 24 55 1a 3c b6 5d 0f bc 73 dd 8b bc 8d 91 fb bc
       0.009419713 -0.00875037 -0.017073369 -0.030709052
000390 1c 8a bd 3b 98 11 82 bc f6 c5 f9 bc 17 c8 06 3d
       0.005784286 -0.01587753 -0.030489903 0.032905664
0003a0 fb 3f 22 ba 4a c3 d3 3c e2 22 22 3d 1a ce a7 bc
       -0.00061893434 0.025849957 0.039584048 -0.02048402
0003b0 4c 89 70 3c 1d 82 03 3c 85 81 3e 3d 16 d5 85 bc
       0.014681172 0.008026627 0.04651024 -0.016336959
0003c0 97 5c 99 3c 8f 3b ba ba 31 dd 4a 3c 3c 91 4f bc
       0.018720908 -0.0014208424 0.012381838 -0.012668904
0003d0 fa 76 46 3c be 65 e1 b9 57 0e cc bc 88 7f 19 3c
       0.012113327 -0.00042991148 -0.024909182 0.009368785
0003e0 e6 84 05 bd 6e 16 f6 3c 29 89 19 bc 9f cd ed bc
       -0.032597445 0.030039992 -0.00937108 -0.029028712
0003f0 03 e2 df bc 1f c9 d8 3b 7b 58 30 3c 10 ef b1 bb
       -0.02732945 0.0066157724 0.010763283 -0.00543011

C4.bias f4 [64]
000000 2d 68 3e b8 4a c0 a6 38 ea 5f 20 b8 a8 22 92 37
       -4.539655e-05 7.9513135e-05 -3.82363e-05 1.7420694e-05
000010 ce 9b 6b b6 5c 86 23 b7 a5 13 cc b8 6a f4 fe b7
       -3.510842e-06 -9.74684e-06 -9.731137e-05 -3.0392974e-05
000020 a4 e2 cf b5 18 3a cd 36 0c 72 f2 36 28 6f a0 b7
       -1.5488663e-06 6.116239e-06 7.225439e-06 -1.9125247e-05
000030 c0 3c e0 b4 f0 f4 2a 39 cc 67 e9 36 2f 82 c2 37
       -4.1767453e-07 0.0001630371 6.9560247e-06 2.3187224e-05
000040 0e 1f fc b7 84 89 01 b7 d4 ee 47 38 87 67 93 b7
       -3.0055202e-05 -7.721017e-06 4.7667723e-05 -1.7571974e-05
000050 82 02 8c 37 99 62 bf 37 fc 36 8c 38 25 c0 39 b8
       1.6690468e-05 2.2814887e-05 6.685962e-05 -4.4286386e-05
000060 2b db 8e 37 16 ab 3e b7 60 3f 4e b7 6c c4 a8 b6
       1.7029777e-05 -1.1364717e-05 -1.22933125e-05 -5.0296567e-06
000070 11 35 41 38 7b 06 0a 38 25 c4 07 b7 00 82 7d 38
       4.6064208e-05 3.29078e-05 -8.0922955e-06 6.0440972e-05
000080 55 9b 65 b7 04 98 37 b9 5e 4c bb b7 df a8 2d 37
       -1.368563e-05 -0.0001750887 -2.2327698e-05 1.0350922e-05
000090 e0 b8 ac b7 b0 3a b2 b8 0f c3 68 b7 28 49 b7 b6
       -2.0590087e-05 -8.498633e-05 -1.3873693e-05 -5.4623415e-06
0000a0 c8 bc 69 37 72 67 dc 37 b4 75 9b b8 77 d3 cd 36
       1.3931836e-05 2.6274214e-05 -7.4129e-05 6.134094e-06
0000b0 fc 39 b5 37 0f 2a 6b 38 38 f3 71 b6 3b a5 ed 36
       2.1603882e-05 5.6067536e-05 -3.605337e-06 7.0823858e-06
0000c0 6c 5d 15 37 ab be 18 38 81 f1 f7 37 de 6c f7 37
       8.902844e-06 3.6417197e-05 2.9557154e-05 2.949539e-05
0000d0 d5 ca 65 b8 53 cb ac b7 38 38 da b7 cc 7f 79 b8
       -5.4786757e-05 -2.0598678e-05 -2.6013804e-05 -5.9485246e-05
0000e0 f8 cd 8c b8 2e a2 26 b7 cd 51 90 37 c6 61 3a 37
       -6.714085e-05 -9.932131e-06 1.720423e-05 1.1109229e-05
0000f0 2d 8f 27 38 7c 99 6f 36 40 b0 ab b8 7c 02 0c b7
       3.9949246e-05 3.5703115e-06 -8.1867445e-05 -8.345229e-06

C5.weight f4 [64, 64, 3, 3]
000000 3b ee a4 3c 21 f6 cc bc 51 1d 2a bc d2 83 96 bc
       0.020133128 -0.025019707 -0.010382966 -0.018373404
000010 ee 32 1f 3c b4 bb 54 bc a7 ec fd bc 6e 5f 84 3c
       0.009716732 -0.012984205 -0.030996634 0.016158786
000020 d7 ca 11 bd d3 e0 e5 3c bb 80 21 bb b5 26 f6 bc
       -0.035593834 0.028061306 -0.002464338 -0.030047754
000030 74 c4 c9 3c 98 70 4f bb 9c c9 54 bc 83 15 5a 3c
       0.024629809 -0.0031652804 -0.012987521 0.013310793
000040 81 0b 62 bc 41 d8 7f bd 07 19 c5 bc 91 d0 0b 3d
       -0.013796688 -0.062462095 -0.024059786 0.03413445
000050 aa b9 11 3d b6 82 40 bc a3 25 fa 3c 3c 02 00 3c
       0.035577454 -0.011749914 0.030535525 0.007813033
000060 b4 a0 fe 3b ff 67 0d bd b8 51 bd 3c 14 c4 db bc
       0.007770622 -0.034523007 0.023110256 -0.026826896
000070 d6 d2 a1 b9 b0 ae 29 3d ee 9a 7a 3c aa 44 1c 3d
       -0.00030865398 0.04142636 0.015295727 0.03815142
000080 bc f2 4f bc e2 a2 73 3c c1 fe 25 bd 3f 4c 1e 3c
       -0.01269215 0.014870377 -0.040526155 0.009661733
000090 19 20 83 3c 9d 88 ed bc 78 a3 d6 bc 9c bf b0 bb
       0.016006516 -0.028995806 -0.026200995 -0.0053939354
0000a0 b7 37 c5 bc 0b df 5d bc 88 00 d8 bc 2d 65 47 3c
       -0.024074418 -0.013541947 -0.02636744 0.012170118
0000b0 c4 8a a3 3b 90 91 25 bd 40 7e 1f 3c cd 31 2b 3d
       0.0049909074 -0.040422022 0.00973469 0.04179554
0000c0 09 e7 2f 3c 21 b1 3e bd 1b 7d 34 bd aa 9c 6e bd
       0.010736235 -0.046555642 -0.044064622 -0.058254875
0000d0 9a a5 ef bc be 70 ec bc 1e 67 f8 3c 54 b6 0f 3d
       -0.02925377 -0.028862353 0.030322608 0.03508599
0000e0 da 56 46 bc a3 cc 1d bc 56 ad 15 bd 1a 4f 17 bd
       -0.012105668 -0.009631309 -0.03654226 -0.03694067
0000f0 97 77 07 bd 29 a0 96 bc 60 58 16 3d 8e fb e5 bc
       -0.033073034 -0.018386917 0.036705375 -0.028074052
000100 03 80 53 bc 03 1d ad bb ff 47 9e bc 93 e2 94 3c
       -0.012908938 -0.0052829995 -0.01932144 0.018174445
000110 3f 90 d3 bb 07 d8 94 bc 5b 66 c2 3c 70 7d e1 bc
       -0.0064564045 -0.018169416 0.023730448 -0.027525634
000120 02 a9 13 3d 2f f1 12 3c b0 c1 0e bc 2d 34 29 bd
       0.03604985 0.008968635 -0.008713171 -0.041309524
000130 56 21 c5 bb f7 de 22 3d 6c 25 c4 3c 9b 0d d2 3c
       -0.006015937 0.039763417 0.023943625 0.025641253
000140 79 14 ac bc 80 c6 f1 3b 7b 81 ed bc f4 fa 02 ba
       -0.021005856 0.0073783994 -0.028992405 -0.00049965014
000150 bd 0e 0e bd 34 f7 13 bd ae 09 ee 3c 97 e3 c4 bb
       -0.034682024 -0.036124423 0.02905735 -0.006008576
000160 9c cc d1 bc 6c df 15 bc e7 49 c0 3b 8c 73 14 bb
       -0.02561026 -0.009147506 0.005868185 -0.002265188
000170 75 aa a7 3b 4a 35 c8 3c d2 04 9e bc 02 33 03 3d
       0.0051167556 0.024439473 -0.019289408 0.032031067
000180 1a 3d 31 bd d5 0a 8d bc 98 1a 33 bd 50 58 2c 3c
       -0.04327116 -0.01721708 -0.043726534 0.010519102
000190 f8 08 ba 3c fe f8 a5 3c 25 64 28 bd 33 5e b8 3c
       0.022709355 0.02026033 -0.04111113 0.022505855
0001a0 f3 b3 14 3d ca cc 90 3c 32 83 7d 3a ad ea ef 3c
       0.036304425 0.017675776 0.00096707337 0.029286707
0001b0 6a 9a 0a 3d 12 d8 47 bd 28 18 bf bc 3b 72 e8 3c
       0.033838667 -0.048790045 -0.023326948 0.028374782
0001c0 55 77 bd bb 51 34 bd bc a1 d8 d8 ba bd 86 bd 3c
       -0.0057820478 -0.023096235 -0.0016544053 0.023135537
0001d0 29 14 14 3d 79 57 e5 3c e2 4b 0d 3d 85 73 1d 3d
       0.03615204 0.027995812 0.034496196 0.038440246
0001e0 ec 81 07 3d e8 5a 24 bb a8 24 fa 3c dd 05 3d bd
       0.033082888 -0.0025078598 0.030535057 -0.04614817
0001f0 ee 5f 31 bd 29 0e 04 bb db 4b 73 3c 09 be 03 3d
       -0.043304376 -0.0020150042 0.014849628 0.032163654
000200 37 d9 03 3d 11 dd a4 3c 7a 27 61 bd d9 b1 40 bd
       0.032189574 0.020124944 -0.05496929 -0.04704461
000210 cd ab 97 3b cc 1c a5 bc 0e 01 da 3c ce 1b 67 bc
       0.0046286345 -0.020155333 0.026611831 -0.01410575
000220 e4 b6 74 3c a2 b5 00 bd 19 11 59 3b f7 8f 42 bd
       0.014936183 -0.03142322 0.0033121763 -0.047500577
000230 b2 50 09 3d 7a 2f e3 bc 9f 57 d6 3c 4b 28 bb bc
       0.033524223 -0.0277326 0.026164828 -0.022846362
000240 f6 3a c8 3c 3d 60 06 bd 14 ec 46 bc 01 f4 b5 3b
       0.024442177 -0.032806624 -0.012141246 0.005552769
000250 17 c0 8a bc 15 0f 4a 3c bc 3c b6 bc 78 2f 01 bd
       -0.016937299 0.012332697 -0.022245757 -0.03153941
000260 57 89 26 bd 05 06 23 bd e1 77 08 bd 9a e6 2f bc
       -0.04065832 -0.039800663 -0.03331745 -0.010736132
000270 1e 75 a5 3b c8 b5 55 3c 20 ac 99 bc f1 0a 0d 3d
       0.005049362 0.013043828 -0.018758833 0.034434263
000280 26 1a d8 3c 7f e3 79 bc 4a d9 25 bc f6 0a 51 3c
       0.026379656 -0.015251993 -0.0101226065 0.012758961
000290 ef 17 ac 3c 87 58 e4 bc 31 1f 20 bc 59 64 ff bc
       0.021007506 -0.027874244 -0.009773062 -0.03117578
0002a0 01 f4 34 bd b9 5d 8e bd 85 32 f5 bc 61 ad 10 3d
       -0.044178013 -0.0695147 -0.029931316 0.035321597
0002b0 fc 3a 11 3d 04 98 a4 ba 1d 8c 07 3c c0 3e 1f bd
       0.035456643 -0.0012557511 0.008273152 -0.038878202
0002c0 0c 72 14 bd c8 27 90 bc fc ff 17 bd 3b b5 8d bc
       -0.036241576 -0.017597094 -0.03710936 -0.017298331
0002d0 5a 73 fd 3c bd 04 12 3d c6 fd 60 3d 0d 3e 16 bd
       0.030938793 0.03564905 0.054929517 -0.03668027
0002e0 24 07 7f 3c 2c c9 bc 3c de ea d9 bc a7 03 0d bc
       0.015565667 0.023045145 -0.026601251 -0.008606828
0002f0 62 ad f4 bc 0d ad 41 3d 59 46 30 3d 5e 74 d2 bb
       -0.029867832 0.047284175 0.04303584 -0.0064225635
000300 dd 61 f1 bc 9e d5 60 bb a9 44 15 bd bc 79 06 bd
       -0.02946561 -0.0034307013 -0.036442433 -0.03283094
000310 38 b4 90 3c 3e c4 8d 3b 59 73 3e 3c 6c 56 fb bc
       0.01766406 0.0043263724 0.011624181 -0.030680858
000320 c0 58 74 3c 00 d3 ca bc 75 f3 52 bc 03 a6 ed bc
       0.014913738 -0.024758816 -0.0128754275 -0.029009825
000330 9c 68 3a bd b3 2e 32 bd 36 32 9f 3b 58 c6 30 bd
       -0.04550992 -0.043501567 0.0048582805 -0.043157905
000340 1e 97 20 bd c6 e8 fe bb 9d fd 01 bd f6 4a d1 bc
       -0.039206617 -0.0077792136 -0.031736005 -0.02554844
000350 8d 94 92 bc 77 5f c9 bc 33 ca 26 bc 61 11 c8 bc
       -0.0178931 -0.024581654 -0.010180044 -0.02442235
000360 f2 d0 81 bc 5c a0 88 3c 6e 41 77 bc 9d de ea 3b
       -0.015846703 0.016678028 -0.015091283 0.007167651
000370 99 7a 21 bd f0 37 c6 bc 4f 2d 06 bb 08 a0 04 bc
       -0.03942356 -0.024196595 -0.0020473783 -0.008094795
000380 57 5d ca bc be 8c dc 3c 1b 80 77 3c 57 57 43 3c
       -0.024702711 0.02692258 0.015106226 0.011922679
000390 cf 2e 20 3c 94 4e 0b 3c 45 db a4 bc f7 f7 81 3c
       0.009776785 0.008502621 -0.020124087 0.01586531
0003a0 2a fe 7c 3b 76 44 66 3c aa 77 fc bc dd 0e 18 bd
       0.0038603642 0.014054408 -0.030818779 -0.03712355
0003b0 07 5d d7 3c e1 5b 7e 3c 56 15 23 3c c6 ee 93 3a
       0.026289476 0.015524835 0.009953817 0.001128637
0003c0 97 4e 44 bc dc d5 5f 3c c1 8b 14 3d a9 98 97 3c
       -0.011981628 0.013661828 0.036266092 0.018505411
0003d0 68 6a 90 bc db a3 2d 3d 75 2a 88 bc 96 e7 3b 3d
       -0.017628863 0.042392593 -0.016621808 0.045875154
0003e0 36 6b 33 bc 3b ab d1 bc 8e b9 66 bc 61 8c 21 bd
       -0.010950854 -0.025594344 -0.014082326 -0.039440516
0003f0 ba 89 d0 3c 8e aa ea bc d8 c9 a4 3c 80 fa 94 bc
       0.025456298 -0.02864578 0.020115778 -0.018185854

C5.bias f4 [64]
000000 c6 49 1f 38 01 95 1b b8 b6 3c 8a b7 74 30 6c b5
       3.797726e-05 -3.709365e-05 -1.6479153e-05 -8.798736e-07
000010 f8 07 7b b6 02 0b 60 37 e4 04 e0 b7 fa d3 90 b7
       -3.7406553e-06 1.3354003e-05 -2.6705158e-05 -1.7264847e-05
000020 23 f1 f8 b6 80 d0 22 37 1c 72 a3 b6 9f 08 6a b7
       -7.419048e-06 9.704498e-06 -4.8710626e-06 -1.3949494e-05
000030 7b e3 96 38 0d ec 7d 37 3f d1 ad b7 bc e7 55 b5
       7.194929e-05 1.5134935e-05 -2.0720645e-05 -7.96859e-07
000040 eb a9 48 37 46 98 49 b6 08 fd 91 b7 77 63 ca b6
       1.1960491e-05 -3.0039969e-06 -1.7403174e-05 -6.0316484e-06
000050 13 3e 33 b8 c3 4e 61 37 7b ee e3 36 30 ae 94 b6
       -4.2734737e-05 1.3429383e-05 6.79289e-06 -4.431022e-06
000060 2f 35 44 b7 9c 67 ee b7 54 11 a7 b7 7f 2f 7b b7
       -1.1694893e-05 -2.8420058e-05 -1.991602e-05 -1.4971824e-05
000070 cc 3c 2e 37 50 4e 70 38 84 13 dc 37 c1 66 da b6
       1.0385364e-05 5.7293393e-05 2.6235131e-05 -6.5088684e-06
000080 80 60 a3 34 5a 25 89 37 ff 17 be 37 f3 ab bb b7
       3.043133e-07 1.6349066e-05 2.2660939e-05 -2.2372207e-05
000090 92 b9 db 37 18 70 ab b7 cc 90 6c 38 1e d0 1f 37
       2.6193247e-05 -2.0436986e-05 5.6401637e-05 9.525595e-06
0000a0 df b5 23 37 32 b4 b2 b7 dd 59 ae 37 60 41 12 36
       9.757902e-06 -2.1303164e-05 2.0784262e-05 2.1793749e-06
0000b0 2e 0f a3 37 a1 72 e7 37 f1 84 38 37 16 58 ac 37
       1.9438183e-05 2.7590724e-05 1.09982075e-05 2.0545016e-05
0000c0 f7 71 d3 36 02 00 e0 b8 c2 25 3b 36 6d f8 9a b7
       6.3015573e-06 -0.00010681154 2.788715e-06 -1.8473913e-05
0000d0 4b 6e 05 38 00 5e b4 b5 19 18 e9 b7 33 59 1f 38
       3.181239e-05 -1.3438403e-06 -2.7786986e-05 3.7991627e-05
0000e0 c8 e4 1f b8 9c 8e 8e 38 25 cb 81 b6 b8 6e cf 36
       -3.8121623e-05 6.797651e-05 -3.8681487e-06 6.18197e-06
0000f0 46 94 d4 36 4b 7b 01 b8 32 8c 6f 37 ee f3 85 37
       6.3353536e-06 -3.0870822e-05 1.4278152e-05 1.5968424e-05

BN1.weight f4 [32]
000000 a2 59 7d 3f 75 38 7a 3f c5 c0 84 3f 49 4f 7c 3f
       0.98964894 0.97742397 1.0371329 0.9855848
000010 99 51 81 3f fb 00 81 3f db b8 7a 3f 7e 8a 80 3f
       1.0103027 1.0078424 0.9793832 1.0042264
000020 68 c5 7e 3f b1 b7 7b 3f 3a 2c 7e 3f e4 3d 80 3f
       0.9951997 0.98327166 0.99286234 1.0018888
000030 eb 62 7e 3f f5 6a 81 3f f7 09 80 3f 56 a5 7d 3f
       0.99369687 1.0110766 1.0003041 0.9908041
000040 bb 78 7c 3f d3 82 80 3f bf 7a 82 3f e6 c3 7d 3f
       0.9862172 1.0039924 1.0193709 0.9912704
000050 88 ca 7e 3f 72 74 80 3f d9 1f 81 3f 1d cb 7d 3f
       0.9952779 1.0035536 1.0087844 0.9913805
000060 c4 33 80 3f 0c 2e 7b 3f f2 97 80 3f 5b aa 81 3f
       1.0015798 0.98117137 1.004637 1.0130113
000070 a6 30 82 3f 89 10 83 3f 7e 3d 7c 3f 99 5c 7b 3f
       1.0171096 1.0239421 0.9853133 0.9818817

BN1.bias f4 [32]
000000 58 bf 0c 3a 40 80 eb bb 7a a7 07 bb 7b fc c7 3b
       0.00053690886 -0.0071869195 -0.002069919 0.006103096
000010 0b 94 24 bb b8 1d 5b ba 48 30 a3 3b 11 73 e8 bb
       -0.0025112655 -0.00083586155 0.004980121 -0.007093795
000020 19 df 10 bc 75 fa 9c 3a a2 41 88 3c 2e 16 bf bc
       -0.008842253 0.0011976497 0.016632859 -0.023326006
000030 25 26 63 bb 8a e8 82 bb 36 f0 b4 bc f9 4e 24 bc
       -0.0034660187 -0.003995006 -0.022087198 -0.010028594
000040 73 f9 85 bc 2e dc 49 3b fb 18 0f 3b a7 a0 13 bb
       -0.016354298 0.0030801403 0.0021834958 -0.0022526176
000050 ab aa 35 bb b3 74 d6 bb f7 d8 ef 3c c1 ae 3e 3c
       -0.0027720134 -0.0065446733 0.029278262 0.011638344
000060 6b dc b9 bb 9b 70 42 bc 82 b2 06 b9 8f 62 2f bc
       -0.005672028 -0.011867668 -0.00012845735 -0.010704651
000070 fa b3 7a bc 2b 2d 81 3b 09 c2 00 3c a3 76 48 3c
       -0.015301699 0.003942152 0.007858762 0.012235316

BN1.running_mean f4 [32]
000000 aa e3 1a 3f bc f1 49 3f 2d 2f 07 be 76 0f 1e be
       0.6050364 0.7888448 -0.1320159 -0.15435585
000010 59 d4 17 c0 02 99 cf c0 aa de 85 3f fc a7 e6 3f
       -2.3723357 -6.4874277 1.0458577 1.8020015
000020 9c f5 c6 c0 4c 2b e3 40 30 b9 16 c1 5d 1f 1e 40
       -6.2174816 7.0990353 -9.420212 2.4706643
000030 48 ff 5b 3e 06 94 9c be 54 3e 89 40 04 a3 87 3f
       0.21484101 -0.30581683 4.2888584 1.0596623
000040 45 84 02 41 10 27 d3 3f e3 17 c6 c0 65 16 b6 40
       8.157292 1.6496296 -6.190416 5.6902337
000050 47 93 38 41 23 cf 4f 40 a1 9e d4 c0 6d 4b e0 bf
       11.535956 3.2470176 -6.644364 -1.7523018
000060 6b 85 7a c0 9e 14 ef 3e 8f e2 8e 40 d3 4b af c0
       -3.9143932 0.46695417 4.465156 -5.478006
000070 b0 17 e4 c0 82 16 64 c1 bc 32 87 c0 a8 22 28 bf
       -7.1278915 -14.255495 -4.224943 -0.6567788

BN1.running_var f4 [32]
000000 5b fd c0 42 8e 86 72 42 cb 95 ab 42 00 04 93 43
       96.494835 60.6314 85.792564 294.03125
000010 2d 7e 75 42 3c 7d 7f 43 da fc fa 43 38 18 13 43
       61.37322 255.4892 501.9754 147.0946
000020 ec f6 67 43 60 17 d7 43 98 ec e5 44 5c a5 05 43
       231.96454 430.18262 1839.3936 133.64594
000030 60 19 e2 43 0f f7 10 42 9e 51 d1 42 d6 13 68 43
       452.19824 36.24127 104.65941 232.07748
000040 a4 77 33 44 25 88 f7 42 e1 01 d5 43 b7 6c ba 42
       717.8694 123.76591 426.01468 93.21233
000050 17 e6 49 44 c2 c7 6b 42 67 61 24 44 b4 8f ca 44
       807.59515 58.945076 657.5219 1620.4907
000060 18 48 7a 42 ea ac 93 43 91 76 71 42 02 96 66 43
       62.570404 295.3509 60.365788 230.58597
000070 ab 19 6a 44 27 32 a2 44 b4 28 0e 44 32 9f 84 43
       936.40106 1297.5673 568.636 265.2437

BN2.weight f4 [64]
000000 af de 80 3f ba 6d 7d 3f 59 11 7e 3f f0 8d 7e 3f
       1.0067958 0.98995554 0.9924522 0.9943533
000010 85 19 7d 3f ce 0b 82 3f ca f4 80 3f d8 65 80 3f
       0.98867065 1.0159853 1.0074704 1.003108
000020 44 b8 80 3f 91 91 7d 3f f1 71 81 3f dc 8a 81 3f
       1.0056233 0.9905024 1.0112897 1.0120502
000030 45 d2 7f 3f e3 71 7f 3f 86 d8 7f 3f 0a c1 7b 3f
       0.9993022 0.9978315 0.99939764 0.9834143
000040 92 25 81 3f 0e 77 7a 3f 91 32 7f 3f 93 a9 81 3f
       1.008959 0.97837913 0.99686533 1.0129875
000050 8b 62 7b 3f 94 73 80 3f 9a 11 7e 3f 18 e8 80 3f
       0.9819724 1.0035272 0.9924561 1.0070829
000060 bc af 81 3f eb 1d 80 3f 38 20 81 3f 55 b3 79 3f
       1.0131755 1.000913 1.0087957 0.97539264
000070 56 40 82 3f ff 3b 7c 3f 8b 8a 80 3f 19 d2 80 3f
       1.0175884 0.98529047 1.004228 1.0064117
000080 06 fd 7d 3f da 60 81 3f ad d8 80 3f 96 e7 7a 3f
       0.9921421 1.0107682 1.0066124 0.9800962
000090 57 9c 82 3f de 9f 80 3f 24 4a 7f 3f e5 64 83 3f
       1.0203961 1.0048788 0.99722505 1.0265166
0000a0 39 f7 7e 3f 97 f4 7e 3f 1a b1 7e 3f 72 4a 7a 3f
       0.9959598 0.99591964 0.99488986 0.97769845
0000b0 ba 45 7e 3f 99 11 7d 3f a6 0f 7c 3f 7c f6 80 3f
       0.99325144 0.98854977 0.9846138 1.0075221
0000c0 d4 9d 80 3f 91 96 81 3f 84 f2 7b 3f f5 92 7d 3f
       1.0048165 1.0124074 0.98416924 0.99052364
0000d0 2e 6f 7d 3f 53 61 81 3f c6 f0 7e 3f 63 58 7c 3f
       0.9899777 1.0107826 0.9958614 0.9857237
0000e0 41 95 7e 3f fc 31 7d 3f 07 38 81 3f 44 b3 7a 3f
       0.99446493 0.98904395 1.0095223 0.9792979
0000f0 29 74 81 3f d0 7b 7a 3f 99 c5 7c 3f 10 e9 7d 3f
       1.0113574 0.9784517 0.9873901 0.9918375
